[INFO: train.py:  118]: Initializing train dataset
[INFO: train.py:  121]: Initializing val dataset
[INFO: train.py:  129]: There are 42.0625 iterations per epoch
[INFO: train.py:  153]: Here is the generator:
[INFO: train.py:  154]: TrajectoryGenerator(
  (encoder): Encoder(
    (encoder): LSTM(16, 32)
    (spatial_embedding): Linear(in_features=2, out_features=16, bias=True)
  )
  (decoder): Decoder(
    (decoder): LSTM(16, 32)
    (spatial_embedding): Linear(in_features=2, out_features=16, bias=True)
    (hidden2pos): Linear(in_features=32, out_features=2, bias=True)
  )
  (pool_net): PoolHiddenNet(
    (spatial_embedding): Linear(in_features=2, out_features=16, bias=True)
    (mlp_pre_pool): Sequential(
      (0): Linear(in_features=48, out_features=512, bias=True)
      (1): ReLU()
      (2): Linear(in_features=512, out_features=8, bias=True)
      (3): ReLU()
    )
  )
  (mlp_decoder_context): Sequential(
    (0): Linear(in_features=40, out_features=64, bias=True)
    (1): ReLU()
    (2): Linear(in_features=64, out_features=24, bias=True)
    (3): ReLU()
  )
)
[INFO: train.py:  169]: Here is the discriminator:
[INFO: train.py:  170]: TrajectoryDiscriminator(
  (encoder): Encoder(
    (encoder): LSTM(16, 48)
    (spatial_embedding): Linear(in_features=2, out_features=16, bias=True)
  )
  (real_classifier): Sequential(
    (0): Linear(in_features=48, out_features=64, bias=True)
    (1): ReLU()
    (2): Linear(in_features=64, out_features=1, bias=True)
    (3): ReLU()
  )
  (pool_net): PoolHiddenNet(
    (spatial_embedding): Linear(in_features=2, out_features=16, bias=True)
    (mlp_pre_pool): Sequential(
      (0): Linear(in_features=64, out_features=512, bias=True)
      (1): ReLU()
      (2): Linear(in_features=512, out_features=48, bias=True)
      (3): ReLU()
    )
  )
)
[INFO: train.py:  233]: Starting epoch 1
[INFO: train.py:  278]: t = 1 / 8412
[INFO: train.py:  280]:   [D] D_data_loss: 6.365
[INFO: train.py:  280]:   [D] D_total_loss: 6.365
[INFO: train.py:  283]:   [G] G_discriminator_loss: 0.611
[INFO: train.py:  283]:   [G] G_l2_loss_rel: 11.528
[INFO: train.py:  283]:   [G] G_total_loss: 12.140
…
