[INFO: train.py:  128]: Initializing train dataset
[INFO: train.py:  131]: Initializing val dataset
[INFO: train.py:  139]: There are 42.0625 iterations per epoch
[INFO: train.py:  163]: Here is the generator:
[INFO: train.py:  164]: TrajectoryGenerator(
  (encoder): Encoder(
    (encoder): LSTM(16, 32)
    (spatial_embedding): Linear(in_features=2, out_features=16, bias=True)
  )
  (decoder): Decoder(
    (decoder): LSTM(16, 32)
    (spatial_embedding): Linear(in_features=2, out_features=16, bias=True)
    (hidden2pos): Linear(in_features=32, out_features=2, bias=True)
  )
  (pool_net): PoolHiddenNet(
    (spatial_embedding): Linear(in_features=2, out_features=16, bias=True)
    (mlp_pre_pool): Sequential(
      (0): Linear(in_features=48, out_features=512, bias=True)
      (1): ReLU()
      (2): Linear(in_features=512, out_features=8, bias=True)
      (3): ReLU()
    )
  )
  (mlp_decoder_context): Sequential(
    (0): Linear(in_features=40, out_features=64, bias=True)
    (1): ReLU()
    (2): Linear(in_features=64, out_features=24, bias=True)
    (3): ReLU()
  )
)
[INFO: train.py:  179]: Here is the discriminator:
[INFO: train.py:  180]: TrajectoryDiscriminator(
  (encoder): Encoder(
    (encoder): LSTM(16, 48)
    (spatial_embedding): Linear(in_features=2, out_features=16, bias=True)
  )
  (real_classifier): Sequential(
    (0): Linear(in_features=48, out_features=64, bias=True)
    (1): ReLU()
    (2): Linear(in_features=64, out_features=1, bias=True)
    (3): ReLU()
  )
  (pool_net): PoolHiddenNet(
    (spatial_embedding): Linear(in_features=2, out_features=16, bias=True)
    (mlp_pre_pool): Sequential(
      (0): Linear(in_features=64, out_features=512, bias=True)
      (1): ReLU()
      (2): Linear(in_features=512, out_features=48, bias=True)
      (3): ReLU()
    )
  )
)
[INFO: train.py:  241]: Starting epoch 1
[INFO: train.py:  286]: t = 1 / 8412
[INFO: train.py:  288]:   [D] D_data_loss: 1.386
[INFO: train.py:  288]:   [D] D_total_loss: 1.386
[INFO: train.py:  291]:   [G] G_discriminator_loss: 0.693
[INFO: train.py:  291]:   [G] G_l2_loss_rel: 10.659
[INFO: train.py:  291]:   [G] G_total_loss: 11.352
…
