[INFO: train.py:  118]: Initializing train dataset
[INFO: train.py:  120]: Initializing val dataset
[INFO: train.py:  128]: There are 186.828125 iterations per epoch
[INFO: train.py:  152]: Here is the generator:
[INFO: train.py:  153]: TrajectoryGenerator(
  (encoder): Encoder(
    (encoder): LSTM(16, 32)
    (spatial_embedding): Linear(in_features=1, out_features=16, bias=True)
  )
  (decoder): Decoder(
    (decoder): LSTM(16, 32)
    (spatial_embedding): Linear(in_features=1, out_features=16, bias=True)
    (hidden2pos): Linear(in_features=32, out_features=1, bias=True)
  )
  (pool_net): PoolHiddenNet(
    (spatial_embedding): Linear(in_features=1, out_features=16, bias=True)
    (mlp_pre_pool): Sequential(
      (0): Linear(in_features=48, out_features=512, bias=True)
      (1): ReLU()
      (2): Linear(in_features=512, out_features=8, bias=True)
      (3): ReLU()
    )
  )
  (mlp_decoder_context): Sequential(
    (0): Linear(in_features=40, out_features=64, bias=True)
    (1): ReLU()
    (2): Linear(in_features=64, out_features=24, bias=True)
    (3): ReLU()
  )
)
[INFO: train.py:  168]: Here is the discriminator:
[INFO: train.py:  169]: TrajectoryDiscriminator(
  (encoder): Encoder(
    (encoder): LSTM(16, 48)
    (spatial_embedding): Linear(in_features=1, out_features=16, bias=True)
  )
  (real_classifier): Sequential(
    (0): Linear(in_features=48, out_features=64, bias=True)
    (1): ReLU()
    (2): Linear(in_features=64, out_features=1, bias=True)
    (3): ReLU()
  )
  (pool_net): PoolHiddenNet(
    (spatial_embedding): Linear(in_features=1, out_features=16, bias=True)
    (mlp_pre_pool): Sequential(
      (0): Linear(in_features=64, out_features=512, bias=True)
      (1): ReLU()
      (2): Linear(in_features=512, out_features=48, bias=True)
      (3): ReLU()
    )
  )
)
[INFO: train.py:  188]: Restoring from checkpoint /home/anirudhashrk/kunal/sgan-modified/scripts/gan_test_with_model.pt
[INFO: train.py:  232]: Starting epoch 6
[INFO: train.py:  277]: t = 301 / 37365
[INFO: train.py:  279]:   [D] D_data_loss: 1.386
[INFO: train.py:  279]:   [D] D_total_loss: 1.386
[INFO: train.py:  282]:   [G] G_discriminator_loss: 0.693
…
